clientside/server/pyserver/data.pth (torch, 3903 bytes, 6 tensors)

l1.weight f4 [8, 28]
00000000: 0031 a53d e79e 3ebd ec79 193f 3f8f 52be
00000010: 95a9 5ebe 08eb 6dbb 05ae 0a3e c545 b53e
00000020: 34cb fcbd 7496 5a3f 6831 89bc bf3d bdbe
00000030: f03f 16be 5869 0ebf 73a8 4d3f b539 c33d
00000040: 595b 413e 49d4 a83d 9dcb ef3e ace6 91bc
00000050: 025e 783e 2f43 31bf 7698 60be 702a dbbd
00000060: a046 473d 85bb 393e 71a1 463e ec68 25bd
00000070: b910 d03e 0432 0b3d e41f b63e 2942 d0be
00000080: 5aa9 c13d 2a11 e83d 3285 263e 4756 97bd
00000090: e31d 07bf a66a 39bf 4496 c83e 79b1 62bf
000000a0: 7c60 f23c b226 543f d826 3b3f 0ab7 db3e
000000b0: 20dd 393e 64b9 00be 8fec 56be 2495 c83e
000000c0: 301c 833d 827c 463f dcbc 01be da5b d73e
000000d0: d468 e0bd 35de 393e 77dc 393e 657f 9c3e
000000e0: 5244 143f 994e 683e 4233 763e 4a72 e93e
000000f0: b1c5 363e c66f 793e 1d51 043f 50a2 d3bc
00000100: 1f54 103f 55ac 79bf 5958 033f d573 c23f
00000110: 2e77 183e 3105 1abf a2ba 8e3e 1d9b 1b3f
00000120: 5ed1 093e 52bf ca3e 997c c0be 1f2c 033f
00000130: d2b7 6f3e a088 1e3f 8ee6 433e ffa0 843e
00000140: 6c65 713e ac37 0d3e b31f 0c3e e5e5 d43e
00000150: bded 043e 18e1 d93e 718c 1a3f 3b3c 5d3f
00000160: 69ec c73e 6b46 c13e 8bc4 2a3d cd78 ef3b
00000170: 8735 423f 413f 8c3e 67d3 bb3d 5bed 34bf
00000180: db0b af3e 55b1 30bf a92d 663f a942 073e
00000190: 08d7 48bc 8154 c83e c247 c73d d9ab bb3d
000001a0: 86b4 9a3e bac4 31bf bd43 a23e e758 8fbd
000001b0: a884 3e3e 7c63 bd3d 5fb7 45b9 842f 2ebd
000001c0: 863f f93d b75c 10be 6d18 61be b4cb f9be
000001d0: 3d28 353d 6ee7 95bd 9571 563e 17d4 8b3e
000001e0: edb8 91be 537b 423f cbf0 063e fb6d dbbe
000001f0: 8a33 07be d4c7 043f fdb9 42bf 6d83 033e
00000200: 2edd 853e 84ae 23be 436c b93e 0bd6 063e
00000210: e77d 863d ff0a 9b3f c40f 16be 058f 833e
00000220: 4cc7 68bd 24f8 d73e 7472 973e 800c b13e
00000230: 8cc3 8d3d 9450 c53e ec59 bfbe 45cc 183f
00000240: 7c35 013e 83df 983d b46f 623e 7a7b 933e
00000250: e61b 243f 17d1 6a3f d793 e23d b2d9 24bf
00000260: 3757 bb3c cadc 24bf 5c8b 08bf 88c4 e23d
00000270: 0bf7 ef3e 8ab5 863e 7751 1a3f 54b2 e23d
00000280: 54b9 ac3d 5710 9f3f 705f e43e 22ba 87bd
00000290: 19d7 753e 00f8 8b3e 2c08 e73e 3e5e 22be
000002a0: 5fe7 7c3e e0f6 38bd e463 e73e b7ef 5abe
000002b0: 7270 4cbd e7c1 d5bc f9b0 813e 5860 bb3e
000002c0: 7d56 5ebe 1d5d 603f 18d8 4e3e 0021 50bf
000002d0: 615b 4abd 32c3 983f b159 3a3f 9cd8 7c3e
000002e0: 59f9 a53d f55d a2bd 98bd d43e 7c79 4a3e
000002f0: 7e72 ed3e 2021 50bf 52ba 023d 8061 f13e
00000300: e982 1bbe 5e8e c73d 8dda a13d 7bdf ed3e
00000310: 7ece 2c3e baa3 9e3e 7de1 cabe bbc7 fb3e
00000320: 3931 503e fa29 ef3e 8d32 f33d 04a3 193e
00000330: 2fe8 003f 3fcf 6a3e 795a 463e ce1a bbbe
00000340: 3ab4 df3e 5008 15bc ff30 12bf 251c 0b3e
00000350: 20a4 be3e b479 cd3e cce2 e83e 32fd 413e
00000360: e105 943d 8770 703f 1d64 ba3d d253 c03e
00000370: f3ea a83e 9501 b33e 13e9 d43e 76b0 ca3e
0.08065987 -0.04653826 0.59951663 -0.20562457 -0.21744378 -0.003630342 0.13542946 0.35404792
-0.123434454 0.85385823 -0.016747192 -0.3696117 -0.14672828 -0.5562949 0.8033516 0.09532491
0.18882503 0.08243615 0.46835032 -0.017810188 0.24254611 -0.6924314 -0.21933159 -0.10701454
0.048651338 0.1813794 0.19397523 -0.040383264 0.40637758 0.033983245 0.35571206 -0.40675476
0.09456129 0.11331399 0.16261747 -0.07389503 -0.5277998 -0.7242836 0.39177144 -0.8855205
0.029587023 0.82871544 0.73106146 0.42913085 0.18150759 -0.12570721 -0.20988677 0.39176285
0.06401861 0.77533734 -0.126697 0.42062265 -0.109574944 0.18151172 0.18150507 0.30565944
0.5791675 0.22686233 0.24042991 0.45595008 0.17848851 0.24359044 0.5168627 -0.025834233
0.5637836 -0.9752858 0.5130668 1.5191599 0.14889213 -0.6016417 0.27876765 0.6078356
0.13458773 0.3959909 -0.3759506 0.512392 0.23409966 0.61927223 0.19130918 0.2590408
0.23573846 0.13790768 0.13683967 0.41581646 0.12981315 0.42554545 0.60370547 0.8642003
0.39047554 0.37749037 0.041691344 0.0073081017 0.75862926 0.2739201 0.09171181 -0.70674676
0.34188733 -0.6902059 0.8991342 0.13209023 -0.012258299 0.3912697 0.097304836 0.09163637
0.30215853 -0.69440806 0.31692305 -0.06999379 0.18605292 0.09247491 -0.00018855695 -0.042525783
0.12170319 -0.14097868 -0.21981974 -0.48788226 0.044227827 -0.07319532 0.20941766 0.2731025
-0.284614 0.7596943 0.13177793 -0.42857346 -0.13203254 0.51867414 -0.76065046 0.12843104
0.2614531 -0.15984541 0.3621541 0.13167588 0.06566983 1.2112731 -0.14654452 0.25695053
-0.05683069 0.42181504 0.29579508 0.3457985 0.06922063 0.3853804 -0.37373292 0.5968669
0.12618059 0.074645065 0.22112924 0.28805143 0.6410507 0.91725296 0.110633545 -0.64394677
0.022868736 -0.643994 -0.53337646 0.110726416 0.46868166 0.26310378 0.60280555 0.1106917
0.08433786 1.2426862 0.44604063 -0.06627299 0.24007834 0.27337646 0.45123422 -0.15856263
0.24697636 -0.045157313 0.45193398 -0.21380506 -0.049911924 -0.026093436 0.25330332 0.36596942
-0.2171268 0.8764208 0.2019962 -0.81300354 -0.049403552 1.1934569 0.7279311 0.24692005
0.081042 -0.07928077 0.415509 0.19772905 0.46376413 -0.81300545 0.03191597 0.471447
-0.15186657 0.09743951 0.079030134 0.46459565 0.16875646 0.30984288 -0.3962516 0.4917582
0.20331277 0.46711713 0.11874876 0.15003592 0.50354284 0.2293062 0.1937045 -0.36543888
0.4369219 -0.00909622 -0.5710601 0.13584955 0.37234592 0.40131915 0.45485532 0.18944243
0.07227684 0.93921703 0.09101126 0.3756395 0.32991752 0.34962144 0.41584072 0.39587754

l1.bias f4 [8]
00000000: b5c3 0b3f e2f4 0a3f 0854 563f e23a 193f
00000010: 3e0b 243f 1884 083f c0e7 103f c876 3d3f
0.545955 0.5427991 0.8372197 0.59855473 0.64079654 0.5332656 0.5660362 0.7400937

l2.weight f4 [8, 8]
00000000: fd62 37bf dfb4 e83e 9e82 37be cb6a 613f
00000010: e671 933e 8303 763f caed 80bf 46ce 783f
00000020: a673 8e3f 325a 7f3e 99b0 9bbd 2232 a63f
00000030: 4df9 18bf ff3f 953e fb22 6e3f 0622 4b3e
00000040: c23e d63e 9d87 a0bf 2790 88be cc95 5c3f
00000050: 5046 ad3e f546 423f 82de 933e 0511 0f3f
00000060: 3f53 1bbf 26df 733f acec dfbe e60b 86bf
00000070: 49a6 bd3f df6e 433f 2c45 733f 40cb 583f
00000080: f293 a23f 7f9c a8be 7ecb 16bf f399 643e
00000090: 8b68 153f 4d81 0b3f 000a 813e 8edf 3bbe
000000a0: 9b66 2c3e d20d 0c3f d590 a83f daa3 b63e
000000b0: 3fad a1be 6667 2ebf 38b9 19bd 84aa be3e
000000c0: 0994 173d d2a6 9f3f c841 8ebe 94c7 7c3f
000000d0: 868a 153f 65f1 b13e d557 b73e 58cb 293f
000000e0: 6081 cabe 9638 3fbf 9591 c53f 6af5 a43e
000000f0: 91ab 3f3f 57da 9b3f 7c13 88bf da4c 533f
-0.7163542 0.45450494 -0.1792092 0.8805358 0.28797835 0.9609911 -1.0072567 0.9718975
1.1129043 0.2493675 -0.07602043 1.2984049 -0.597554 0.29150388 0.93022126 0.19837198
0.41844755 -1.2541386 -0.2667248 0.8616607 0.33842707 0.7588952 0.28880697 0.55885345
-0.606739 0.9526237 -0.43735254 -1.0472381 1.4816371 0.7634105 0.9502742 0.84685135
1.2701399 -0.32931897 -0.58904254 0.22324352 0.58362645 0.5449417 0.25202942 -0.18346998
0.16836016 0.5470859 1.3169199 0.35671884 -0.3157749 -0.68126523 -0.037530154 0.37239468
0.03700641 1.2472785 -0.27784562 0.9874203 0.58414495 0.34754482 0.35809198 0.663259
-0.3955183 -0.7469572 1.5435053 0.32218486 0.74871165 1.2176007 -1.0630946 0.8253914

l2.bias f4 [8]
00000000: cd27 1a3d abfc 4ebc 9acf 063e b245 a03e
00000010: b622 66bd d4d8 4d3f aeb4 1b3e b14b 043f
0.037635613 -0.012633483 0.13165131 0.31303173 -0.056185447 0.8040898 0.15205643 0.51677996

l3.weight f4 [6, 8]
00000000: bd67 473f 0057 8f3e 765d 083f 064e b5bf
00000010: 9b03 4ebf c35d 63be 4fe4 c4bd 3aa0 b73e
00000020: e193 e4be 6bda 96bf cee1 5abf 3354 a8bf
00000030: 316c 5bbe c4e0 7e3f f9cd 4fbf a00d 5b3f
00000040: d0a6 4abf 4c8e 71be f577 57bf 4781 813f
00000050: b110 fcbe 385d c4bd f856 793e a316 98bf
00000060: 78b7 20bf 0ae1 823f e91f 1dbf 675f a4bf
00000070: 8146 c33e ce29 ff3e 0c7a 7f3e a30e 31bf
00000080: 4371 b0be ae60 423e 452c 413f 1176 87bc
00000090: f14b 673f e3a9 7ebf 5a79 96be 1661 573c
000000a0: b7a2 393f 9038 85bf 0d42 1bbf 9672 153e
000000b0: da2d 97bd 59ef 05bf 3a99 e63b 1eda d63e
0.7789267 0.27996063 0.5326761 -1.4164436 -0.8047425 -0.22203736 -0.09613859 0.3586443
-0.44644073 -1.1785406 -0.855008 -1.3150696 -0.2142799 0.99561715 -0.81173664 0.85567665
-0.79160786 -0.23589438 -0.84167415 1.0117577 -0.49231485 -0.095880926 0.24349582 -1.1881908
-0.6277995 1.0224926 -0.61376816 -1.2841614 0.38139728 0.49836582 0.24948901 -0.6916296
-0.34461412 0.18982193 0.75458175 -0.01653579 0.9035025 -0.99477977 -0.2938946 0.013145706
0.7251391 -1.0407887 -0.6064766 0.14594492 -0.07381792 -0.5231834 0.007037309 0.41963285

l3.bias f4 [6]
00000000: 152c b0be 1907 b13e ff56 fa3e a847 813e
00000010: ccf8 bb3d cd48 89bd
-0.34408632 0.34575728 0.48894498 0.25249982 0.091783136 -0.06703339
